data.pth (torch, 4511 bytes, 6 tensors)

l1.weight f4 [8, 37]
000000 1a c6 f2 bd cc 57 c6 3e 27 e9 b3 3e 41 0c ce 3e
       -0.11854191 0.3873886 0.3513882 0.40243724
000010 50 83 f9 3e 1f 73 1b bf f1 e2 36 be c2 e1 00 3f
       0.48732996 -0.60722536 -0.17860009 0.5034448
000020 1e 51 e1 3d ac 0b 43 bd 84 15 51 3e 3e 8d 8c 3e
       0.110018 -0.047618553 0.20418364 0.2745151
000030 e0 70 1b bf 7f 5f 70 3c b4 70 25 3f 94 b5 ca 3d
       -0.6071911 0.014671206 0.64625096 0.098979145
000040 82 cc 00 3f 9c 2b 12 3f b4 75 5d 3e 5b b6 91 be
       0.50312054 0.5709779 0.21626931 -0.2845944
000050 d3 95 90 3e 20 46 fe 3e 37 cc 39 3e 83 27 d5 be
       0.28239307 0.49662876 0.18144308 -0.41631708
000060 9e f7 c4 bd cc 31 f9 3d 6c f2 a9 be ae b2 bf 3d
       -0.09617542 0.12167701 -0.33192766 0.09360252
000070 6c 32 d3 be 6f 27 d0 be 77 dc dc 3e 9c 54 e6 3e
       -0.41249406 -0.40655085 0.4313695 0.44986427
000080 53 db 90 3e 96 02 aa 3e d5 44 d6 3e bf 38 29 bd
       0.2829233 0.33205098 0.4184939 -0.041313883
000090 7f a5 77 3e 29 09 23 3f 27 31 44 3d 7c 71 c1 3c
       0.24184225 0.6368585 0.047898438 0.023613684
0000a0 f8 96 32 be b7 77 ea be 45 aa 68 3f 42 73 04 3f
       -0.17440403 -0.4579446 0.9088481 0.5173837
0000b0 9c 3a 10 be 2a c3 3e 3c 2b bc 32 3f c2 c8 01 be
       -0.14084858 0.01164321 0.6981837 -0.1267424
0000c0 f6 25 ca be 0c d8 59 3f be 20 60 3f 74 b7 dc be
       -0.39482087 0.85095286 0.8754996 -0.43108714
0000d0 bc e6 9c 3d b1 d3 cf be 30 c4 f5 be 31 d8 fc be
       0.076611966 -0.40591195 -0.48001242 -0.4938369
0000e0 8c 2e 22 3f 6c 6a 08 be 66 77 53 be 80 1f 31 bd
       0.63352275 -0.13321847 -0.20651016 -0.04324293
0000f0 19 88 fd 3e 69 10 bd 3c d8 f2 16 3f dc 53 83 3f
       0.49517897 0.023079114 0.589643 1.0259967
000100 51 29 78 3f ba 85 74 3f c9 73 dd 3e bb cd 9f be
       0.96938044 0.9551655 0.432524 -0.31211647
000110 2d 7a 33 be 6f f2 ce be ef 44 c6 bc f0 5d 6a be
       -0.17527075 -0.40419337 -0.024202792 -0.22887397
000120 0c c0 3c 3f ec 08 d5 3e 1d 81 8a bd 56 89 bd bd
       0.7373054 0.4160837 -0.06762908 -0.092547104
000130 2a 96 1f be 0f 73 c6 3e 65 4a 23 3e 32 e5 f8 3e
       -0.15584627 0.38759658 0.15946348 0.48612362
000140 1f ea c9 be bf db fa 3e df 52 93 be 51 9b 68 bc
       -0.39436433 0.48995778 -0.28774163 -0.014197187
000150 6a c9 7c be f7 ab f2 3e 91 2d 0a 3f b8 f6 00 bf
       -0.24686208 0.47396824 0.5397578 -0.5037646
000160 f3 52 1b 3f f4 ac 10 be d3 ef ad 3e c7 38 0f 3f
       0.60673445 -0.14128476 0.33972034 0.5594601
000170 b3 a2 c7 3e ee 2d b3 bd 66 8e 92 3e 7a 02 67 be
       0.38991317 -0.08748995 0.28624266 -0.22559538
000180 ae d0 9c be 8b 9f fc 3e 13 a1 14 3c 0e 5d 2d be
       -0.3062796 0.49340472 0.009071606 -0.16930029
000190 7e 83 62 be 0f 63 7e be 14 05 35 be d1 85 ac 3e
       -0.22120473 -0.24842475 -0.17677718 0.33695844
0001a0 5e e8 3a be c9 86 46 be c0 3d 0d bf a3 76 72 be
       -0.18252704 -0.19387354 -0.5517235 -0.23678069
0001b0 3b eb 50 3e f5 e3 b5 be 53 8e ab 3e 3a aa cc bd
       0.20402233 -0.3552548 0.33507022 -0.09993406
0001c0 51 b2 26 3f 83 02 aa 3d e8 5a ba 3e 8f a4 8e 3d
       0.6511584 0.0830126 0.3639748 0.06964981
0001d0 83 bc f4 3e 99 16 8f be 8d 94 c9 3e 97 2f fb be
       0.47800073 -0.27946928 0.39371148 -0.49059746
0001e0 58 e2 7c be 56 f3 57 be ad 7e 29 3e af 02 de 3e
       -0.24695718 -0.21088919 0.16552229 0.43361422
0001f0 52 1e 6a bd 9b 5f 84 3d f1 d6 23 3f 6e 1e d0 3e
       -0.057157822 0.06463548 0.6399985 0.40648216
000200 85 06 16 3e c5 18 b1 3e ca d3 d3 be fe d9 c7 3e
       0.14650925 0.3458921 -0.4137252 0.39033502
000210 5f 33 08 bf b4 47 c9 be 9d 9e 76 bd a1 dc ff 3e
       -0.53203386 -0.39312518 -0.06020986 0.49973014
000220 6f e2 27 be 56 35 6a be d5 8c db be 71 ea d2 be
       -0.16394971 -0.22871909 -0.42880884 -0.4119449
000230 ab 19 bd 3d 58 f1 73 be be af 42 be 9c 3a 80 3f
       0.092334114 -0.23822534 -0.19012353 1.0017886
000240 75 aa 16 3f 9c 7b 2b 3e 75 a6 6d be 1e 98 07 3f
       0.58853847 0.16746372 -0.2320803 0.5296649
000250 b1 99 08 be 18 90 27 bd ee ce 17 be b0 a9 6e bd
       -0.13339879 -0.040908903 -0.14825031 -0.058267295
000260 55 fc ce bd 1c 3a a0 3d d3 8d e3 bd a0 a1 79 bd
       -0.10106722 0.078235835 -0.11111035 -0.060945153
000270 d8 87 ad bc 1d 58 8d bd 54 bb 19 bd 46 be f6 bd
       -0.02118294 -0.06901572 -0.037532166 -0.120480105
000280 62 47 f8 3d 73 d7 0a 3e ce 09 c3 3d b4 d5 92 bd
       0.1212299 0.1355875 0.095233545 -0.07169667
000290 20 fa ae 3c 90 06 06 bc f0 e6 0f bc 90 e3 5d 3c
       0.021359503 -0.008180276 -0.008783087 0.013543025
0002a0 ba d2 a2 3d f0 8d 1e 3e 00 d6 a3 3d 8a 12 e9 3d
       0.07950349 0.15483832 0.07999802 0.11380489
0002b0 44 c0 09 bd 99 72 c3 3d 9e 91 e3 bd 58 fb c0 3c
       -0.033630624 0.09543342 -0.11111759 0.02355735
0002c0 04 e4 78 3d 6a 73 14 be 2f c4 08 be 0c 9a a5 3c
       0.060764328 -0.14497152 -0.13356088 0.020215057
0002d0 50 3d 5d 3d e8 35 d5 bc 8e 31 02 be 66 66 c4 bd
       0.05401355 -0.026026681 -0.12714216 -0.095898435
0002e0 f2 87 1e be 3e ee 70 3e 66 33 86 be 6d df ab 3e
       -0.15481547 0.23528382 -0.2621109 0.33568898
0002f0 90 b9 d7 3e b8 16 ff 3e c2 77 9e bd b6 f2 a3 3d
       0.4213376 0.4982202 -0.07737686 0.08005278
000300 75 e3 de 3e ae 9b 9f 3e 53 56 88 bd 63 cc b5 3e
       0.4353291 0.31173462 -0.0665709 0.35507497
000310 7d cd b9 3e 4a 05 fd bd 76 eb 87 bf 0c 4a d3 3e
       0.36289588 -0.123545244 -1.0618732 0.4126743
000320 5c 74 64 be 46 fe 01 3f eb 9a e8 3e 1e 0f 90 3e
       -0.22310013 0.50778615 0.45430693 0.28136533
000330 aa 78 9f 3e fa a7 0a 3e 98 33 12 3f 6f 60 6c 3e
       0.31146747 0.1354064 0.57109976 0.23083661
000340 8a 53 84 3d 90 d4 ab be e7 72 06 3f dd b0 39 3d
       0.06461246 -0.3356061 0.5251908 0.045334686
000350 f7 c2 aa 3e c6 c9 18 3f f4 39 c8 3d f3 53 d6 3e
       0.3335187 0.5968288 0.09776679 0.41860923
000360 eb 08 0a 3f c3 73 3d bf c2 b9 67 be 49 22 ce 3e
       0.5391986 -0.74004763 -0.22629455 0.40260532
000370 c7 41 51 be 0e c3 c3 38 3e 89 df 3d 74 af 87 be
       -0.20435248 9.334656e-05 0.10914849 -0.26501048
000380 fa 80 f3 3e ca 90 6a 3e 3f d3 05 3f 77 7e be bd
       0.4755934 0.22906795 0.5227546 -0.09301465
000390 76 7f 0e 3c a0 45 d1 3e 13 36 06 3f f0 df c2 bd
       0.008697381 0.40873432 0.5242626 -0.09515369
0003a0 20 d9 c7 3e a0 13 81 3e 25 be dc bd 75 60 66 bf
       0.3903284 0.25210285 -0.10778455 -0.8999093
0003b0 85 78 df 3e 7d 3a 58 bd 6d 96 37 3f df f9 f2 3e
       0.43646637 -0.052790154 0.71713907 0.47456262
0003c0 1e 4f b5 3e f4 4a ae 3e cf 26 ae 3e b7 ef bf 3e
       0.35411924 0.3404156 0.34013984 0.37487575
0003d0 21 ff eb 3e 9d 2f e2 bd 7b 86 c8 be 1a 7a d3 3e
       0.46093085 -0.11044238 -0.391651 0.41304094
0003e0 32 49 03 3e de f4 e6 3e fa 70 f6 3e 5b d5 c3 bd
       0.1282089 0.45108694 0.4813307 -0.09562179
0003f0 d4 7d 8a 3e 7f f8 b0 3e 1c 20 1c bf 3c df 70 be
       0.27049124 0.34564587 -0.60986495 -0.23522657

l1.bias f4 [8]
000000 14 6c 1b 3f 50 24 09 3f fa c4 81 3f f8 96 4d 3f
       0.6071179 0.53571033 1.0138237 0.80308485
000010 42 9a 15 be c8 6f 3d 3f dd 79 0d 3f a9 76 5c 3f
       -0.14609626 0.7399869 0.55264074 0.8611856

l2.weight f4 [8, 8]
000000 94 0e 83 3f 6b 1e 7a bf 67 c6 b6 3e 53 10 23 bf
       1.0238824 -0.97702664 0.35698244 -0.63696784
000010 89 f3 77 bd 17 c0 90 3f c8 8c 9a 3f 08 a8 bb 3e
       -0.060534988 1.1308621 1.2074213 0.36651635
000020 7e cc 8f 3f 3e 3f 8f bf 2b 95 9d 3e 0c 4d 00 3d
       1.1234281 -1.1191175 0.3077787 0.031323478
000030 66 71 22 3e 1b c0 82 3f 11 25 94 3f 2b c0 2f 3e
       0.1586357 1.0214876 1.1573812 0.1716315
000040 d8 14 81 3e ec f4 f6 be e9 da a4 3f 14 89 a9 3f
       0.25211215 -0.48233736 1.2879306 1.3244958
000050 9e 2a 2c be c4 29 09 bd 60 da aa be 80 9c 00 3f
       -0.16813132 -0.033487096 -0.33369732 0.502388
000060 80 29 88 bf 43 04 aa 3f e1 a5 a4 3e c0 5a e5 be
       -1.0637665 1.328255 0.32157806 -0.447958
000070 6e a0 21 3e bb 0d 49 3f bb c2 3b 3f 1d 94 ae 3e
       0.15783855 0.78536576 0.7334401 0.34097376
000080 a6 4d e4 3d 07 54 db be ae 2f 80 3f 95 a5 7d 3f
       0.11147623 -0.42837545 1.0014551 0.99080783
000090 cb d4 30 3e 28 18 cb bd 19 ef 63 be 9a f5 b4 3e
       0.17268674 -0.09916717 -0.22259177 0.3534363
0000a0 bf f0 69 3e 1b 1f ce 3d 76 6b 9e 3f ec b4 0b be
       0.22845744 0.10064527 1.2376544 -0.13643235
0000b0 7d e4 32 be 51 d7 a6 3f 25 7c b5 3f 27 66 1f bf
       -0.17469974 1.3034459 1.4178511 -0.6226525
0000c0 b0 15 a8 3c 94 3b 47 be 8d 16 0d be 33 7e 5a be
       0.020518154 -0.19456321 -0.13778134 -0.21337204
0000d0 9a bd 5b be 9c 24 f2 3d 60 61 50 bd 22 42 68 be
       -0.21459046 0.11823389 -0.050874114 -0.22681478
0000e0 f4 bf 46 3f c8 10 c3 3d 13 b9 da 3e 44 fb 7c 3f
       0.7763665 0.09524685 0.42719325 0.988209
0000f0 7a 49 bf 3d 9c f2 29 bf 12 e6 1c bf 60 45 b8 3f
       0.093401864 -0.6638582 -0.6128856 1.4396172

l2.bias f4 [8]
000000 05 2c 7b 3e 6f 56 24 be 80 2a 45 3e ba 30 46 3f
       0.24528511 -0.16048597 0.19254494 0.774181
000010 a8 7b e6 3e 8e bb 20 3f 52 33 8b be 89 2f 1d 3f
       0.45016217 0.62786186 -0.27187592 0.6140066

l3.weight f4 [6, 8]
000000 31 d4 2f 3f 9f b0 e9 3e 8b d3 c0 bf 30 53 3c bf
       0.68683153 0.45642564 -1.5064558 -0.73564434
000010 07 3f ab be 77 3f 3c 3f 46 17 12 3e 3b 6b 57 bf
       -0.33446524 0.7353434 0.1426669 -0.84147996
000020 50 24 68 bf a6 3f ce bf b4 d8 08 3f b1 01 82 be
       -0.9068041 -1.6113174 0.5345566 -0.25391915
000030 f8 ec 28 3f 8d 83 3f 3f ec 3b c3 bd 26 ea 00 3e
       0.65986586 0.74810106 -0.095329136 0.1258932
000040 91 91 ef 3e 51 0b 6c 3e cd fc 54 3e 30 c5 92 bf
       0.46790746 0.23051192 0.20799561 -1.1466427
000050 58 5d b2 3e dc 0b b2 3e 20 f1 59 bd c1 34 04 3e
       0.3483684 0.34774673 -0.05320847 0.12910749
000060 6c 03 f3 bd bc de 0a bf ba 39 33 bf a8 67 d0 3e
       -0.11865887 -0.54246116 -0.7000996 0.40704083
000070 02 23 05 bf 08 e4 1c bf 77 b2 95 3e e8 75 37 3f
       -0.5200654 -0.6128545 0.2923772 0.71664286
000080 37 91 fc bc 8e 67 45 bf a2 ae 9c bf 43 63 1a 3f
       -0.030830963 -0.77111137 -1.2240794 0.6030771
000090 dc ca 12 be d5 fe 0f 3f 80 29 7d 3c 1d f8 9f bf
       -0.14335197 0.5624822 0.015451789 -1.2497593
0000a0 94 ee ea be 76 c8 2b bf f1 90 41 3f 19 b5 a3 bf
       -0.45885146 -0.67102754 0.7561179 -1.2789642
0000b0 a4 66 2b 3f 06 72 50 bf eb 2e 91 3e 53 61 68 3f
       0.6695349 -0.81423986 0.28356108 0.90773505

l3.bias f4 [6]
000000 5a 42 84 be 23 d6 16 be 07 a5 ba be 17 7f ba 3d
       -0.25831872 -0.14730124 -0.3645403 0.09106272
000010 e4 b7 0e 3f 22 3d 4d be
       0.55749345 -0.20042852
