data.pth (torch, 5663 bytes, 6 tensors)

l1.weight f4 [8, 61]
0	0x3f1bfb23	0.6093008
1	0xbe69a0e2	-0.22815278
2	0x3d709ad5	0.05874141
3	0x3e95b9bc	0.29243267
4	0x3e933c8e	0.28757137
5	0x3e940924	0.28913224
6	0x3f29f332	0.6638671
7	0x3f1cf0f9	0.61305195
8	0x3e9726e9	0.29521874
9	0x3efad936	0.48993844
10	0x3ebac5da	0.36479074
11	0x3e992105	0.29908004
12	0xbdc0a98c	-0.094073385
13	0xbb910448	-0.004425559
14	0x3e0337aa	0.12814203
15	0x3f46606e	0.7749089
16	0x3d4947f9	0.049140904
17	0xbe1a2969	-0.15054859
18	0x3e48e405	0.19618233
19	0x3f36b8ed	0.71375924
20	0x3efe4f99	0.49670103
21	0xbe7fa2a6	-0.24964389
22	0x3ed40035	0.41406408
23	0xbe9e56b9	-0.3092554
24	0x3ef2efcc	0.47448575
25	0x3ecc0ead	0.39854947
26	0x3e84023e	0.2578296
27	0x3f073e47	0.528294
28	0x3e855802	0.26043707
29	0xbe4ad988	-0.19809544
30	0xbdb10a69	-0.08644564
31	0xbeb7c239	-0.35890368
32	0x3be7c73e	0.007073312
33	0x3eef0762	0.4668532
34	0x3e48f632	0.19625166
35	0xbe07badb	-0.13254873
36	0x3e844a73	0.2583805
37	0x3f326dc2	0.6969873
38	0x3f4cb5bf	0.7996482
39	0xbe4582ba	-0.1928815
40	0xbe30cb5d	-0.17265077
41	0x3ef708d0	0.4824891
42	0x3e18c28e	0.14917967
43	0x3e474cf4	0.19462949
44	0x3f0c6a55	0.5484975
45	0x3f950995	1.1643549
46	0x3f022e20	0.5085163
47	0xbe3078b0	-0.17233539
48	0x3a5c92fd	0.0008414237
49	0xbd9c3bba	-0.076285794
50	0x3e8c5d5b	0.27414975
51	0xbdd1a0ea	-0.1023577
52	0xbf6658e6	-0.899794
53	0xbec3109a	-0.38098603
54	0x3e2e9ef8	0.1705283
55	0x3e55b1ba	0.20868579
56	0xbeefb2e0	-0.46816158
57	0xbde23440	-0.11045122
58	0xbe0794c1	-0.13240339
59	0x3e3a0ee0	0.18169737
60	0x3e076952	0.1322377
61	0x3d920b2c	0.07131037
62	0xbe00e97f	-0.12589072
63	0xbeecb9a7	-0.46235391
64	0x3f15ce4b	0.58517903
65	0x3ea5e3aa	0.32400256
66	0x3f1ea5f5	0.6197198
67	0xbf09364e	-0.5359849
68	0x3e89c4fa	0.26908094
69	0x3f1152da	0.56767046
70	0x3f1a9ef4	0.60398793
71	0x3ed2f3b0	0.41201544
72	0x3e98cdf8	0.29844642
73	0x3e89a294	0.2688185
74	0x3efa73f7	0.489166
75	0x3ed8f67c	0.42375553
76	0x3e12adf7	0.14324175
77	0xbe5702e9	-0.20997204
78	0x3e9b48ab	0.3032888
79	0x3eb031d6	0.34413022
80	0xbf1b2e12	-0.6061717
81	0x3dd58b5c	0.10426971
82	0x3987a1ec	0.00025869848
83	0x3ec0d56f	0.37662837
84	0xbe2b5f51	-0.16735579
85	0x3eaabe01	0.33348086
86	0x3eaadbc6	0.333708
87	0x3de64607	0.112438254
88	0x3ef0031a	0.46877366
89	0x3ef1de0e	0.47239727
90	0x3d7b3f45	0.061339635
91	0xbe9585bb	-0.2920359
92	0x3e9d5adc	0.30733383
93	0xbe6bb673	-0.23018818
94	0xbeb1c99b	-0.34724125
95	0x3eacb8fd	0.33734885
96	0x3d4b6f58	0.049666733
97	0x3eee39e0	0.4652853
98	0x3d8d0670	0.068859935
99	0x3e909394	0.28237593
100	0x3e82431f	0.25441834
101	0x3ea80f11	0.32823995
102	0x3f296b46	0.6617931
103	0x3edbcaff	0.4292831
104	0x3ecc962a	0.39958316
105	0x3e30dc84	0.1727162
106	0x3e971425	0.29507557
107	0xbe9bd511	-0.30435994
108	0xbdae9b20	-0.085256815
109	0x3e70308f	0.23456024
110	0xbdb038de	-0.086045966
111	0x3f0c9e66	0.54929197
112	0xbd86dda8	-0.06585246
113	0xbf2bec8a	-0.67157805
114	0xbe3c2d93	-0.1837676
115	0x3e70e08d	0.2352316
116	0xbe5cd240	-0.21564579
117	0x3db58fd9	0.088653274
118	0x3e9a317b	0.30115876
119	0x3b05437a	0.0020334409
120	0x3eb0a3d5	0.34499994
121	0x3e7f6ad7	0.249431
122	0xbef89d2a	-0.48557407
123	0x3d5b65a1	0.053563718
124	0x3daade36	0.083431646
125	0xbe148eb5	-0.14507563
126	0xbd2f2c2b	-0.04276673
127	0xbeae0fb9	-0.3399637
128	0x3eef6cbe	0.4676265
129	0xbe816936	-0.25275582
130	0xbe64a866	-0.22329864
131	0x3d2ca7d4	0.04215224
132	0xbed8e8a5	-0.42364994
133	0xbdc483bb	-0.09595438
134	0x3f06df3c	0.5268438
135	0x3e0ecc8e	0.13945219
136	0x3f1f61ae	0.6225842
137	0x3bf634e4	0.0075136293
138	0xbe40d5cc	-0.18831557
139	0x3e9dc030	0.3081069
140	0xbe71fd9e	-0.23631904
141	0x3f044129	0.51661927
142	0xbeb0f909	-0.34565
143	0xbdd8839c	-0.105719775
144	0xbe8fcf00	-0.28087616
145	0x3d766bb4	0.060161307
146	0xbe9bf265	-0.3045837
147	0xbe9ded76	-0.3084523
148	0x3ed57989	0.41694286
149	0x3e81a008	0.25317407
150	0xbba4f338	-0.0050338767
151	0xbdb716e4	-0.08939913
152	0xbe8f9669	-0.2804444
153	0x3ca36008	0.019943252
154	0xbddb5fc4	-0.10711625
155	0x3ebcf7ce	0.3690781
156	0x3f1e54dc	0.61848235
157	0x3e416d31	0.1888931
158	0xbe582e77	-0.21111475
159	0xbd7c830f	-0.061648425
160	0x3ccfbde0	0.025359094
161	0x3ee9d482	0.45669943
162	0xbd853cc9	-0.065057345
163	0xbd26aa42	-0.040689714
164	0xbdc4456d	-0.095835544
165	0xbe04b6ee	-0.12960407
166	0xbe83ff07	-0.25780508
167	0xbe117444	-0.14204508
168	0x3ef289ce	0.47370762
169	0xbe3310e8	-0.17486918
170	0x3ef2925a	0.47377282
171	0xbc099c46	-0.008399075
172	0x3f0d1d59	0.55122906
173	0xbdefc074	-0.117066294
174	0x3ed3d1f9	0.41371134
175	0x3d6de340	0.05807805
176	0xbe4b772d	-0.1986968
177	0xbd9d1314	-0.076696545
178	0xbe3a0ba2	-0.181685
179	0x3e83fdb3	0.25779495
180	0xbe2551d5	-0.16144498
181	0xbe184964	-0.14871746
182	0xbe21008d	-0.15722866
183	0x3ea566e1	0.32305053
184	0xbe4d0f82	-0.20025447
185	0xbe8b5523	-0.27213392
186	0x3ec8ecd9	0.392432
187	0xbe0c054f	-0.136739
188	0xbf1e3b4c	-0.6180923
189	0xbec6a1e7	-0.38795397
190	0x3de99cc9	0.114068575
191	0x3e7982f7	0.24366365
192	0xbd9c2b10	-0.07625401
193	0x3e8344a5	0.2563831
194	0xbe395e98	-0.18102491
195	0x3ef684a3	0.4814807
196	0x3f22d7a7	0.6361031
197	0x3f2f9aa4	0.6859534
198	0x3eb74231	0.35792688
199	0xbe634901	-0.22195818
200	0x3ee9ffd2	0.45702988
201	0xbe53c5a7	-0.20680867
202	0xbec6ae24	-0.38804734
203	0x3f7a5145	0.9778026
204	0xbd9e8018	-0.07739276
205	0xbec692ce	-0.38783878
206	0xbdb6ae4f	-0.089199655
207	0xbec6a0ce	-0.3879456
208	0xbec69dc4	-0.3879224
209	0x3e923cd6	0.2856204
210	0x3f23d6e7	0.6399979
211	0xbe002956	-0.12515768
212	0x3c14f885	0.009092455
213	0xbe8ff12e	-0.28113693
214	0xbd14212a	-0.03616444
215	0xbe4e4427	-0.20143186
216	0xbe9f32f7	-0.3109357
217	0x3f24acb0	0.64326
218	0xbd9c008e	-0.07617293
219	0x3edfbc63	0.43698415
220	0x3e21b086	0.15789995
221	0x3ed94a39	0.4243944
222	0x3ec59405	0.38589492
223	0xbc8a9d00	-0.016920567
224	0xbc371958	-0.011175476
225	0x3e92f85a	0.28705102
226	0x3ea758d6	0.32684964
227	0x3eec9e65	0.46214595
228	0xbf25e5ab	-0.6480357
229	0xbe00f24a	-0.12592426
230	0xbe0b186e	-0.13583538
231	0x3ef6688e	0.48126644
232	0xbd70c903	-0.05878545
233	0x3edfc578	0.43705344
234	0xbca37a46	-0.019955765
235	0xbedfbc2e	-0.43698257
236	0xbdca9097	-0.098908596
237	0xbe010845	-0.12600811
238	0x3e9ed2a9	0.31020096
239	0xbddf0e79	-0.10891432
240	0x3ef7acaa	0.4837392
241	0xbdca8ece	-0.09890519
242	0x3e9a30e2	0.3011542
243	0x3d48a0e9	0.04898158
244	0xbeda4d4d	-0.426371
245	0x3f1a81af	0.6035413
246	0x3c90cc41	0.01767552
247	0xbe7b32ea	-0.24531141
248	0x3ef1c6ef	0.47222087
249	0x3e3a92fb	0.18220131
250	0xbdbd42f8	-0.09241289
251	0xbcb8839b	-0.022523692
252	0xbd2975c9	-0.041372094
253	0xbf20f78b	-0.6287772
254	0x3c9c8abd	0.019109124
255	0x3e9b53ce	0.30337375

l1.bias f4 [8]
0	0x3f6b1ef6	0.9184412
1	0x3f1b2ef5	0.60618526
2	0x3ebf83d4	0.37405264
3	0x3ec697a1	0.3878756
4	0x3f7d2795	0.9888852
5	0x3f26e0df	0.65186876
6	0xbe2a9b1b	-0.1666073
7	0x3f561dd1	0.83639246

l2.weight f4 [8, 8]
0	0x3e7009d2	0.23441246
1	0xbf7689ca	-0.96304
2	0x3f453cda	0.7704598
3	0xbf4df946	-0.80458486
4	0xbe4e6481	-0.20155527
5	0x3f547da6	0.83004224
6	0xbea9d0de	-0.33167166
7	0x3f935f44	1.1513448
8	0x3e7a18db	0.24423544
9	0xbf74d562	-0.95638096
10	0x3e3dd654	0.18538791
11	0xbe94e3fa	-0.29080182
12	0x3fb3f8c1	1.4060289
13	0x3fec0815	1.8439966
14	0x3e90e43a	0.28299123
15	0x3f718c2e	0.9435452
16	0x3f02c7ec	0.51086307
17	0x3f66329d	0.8992098
18	0xbf885148	-1.0649805
19	0x3f23e762	0.6402494
20	0xbee379b7	-0.444288
21	0x3fbed005	1.4907233
22	0x3e671fde	0.2257075
23	0xbf3fc355	-0.7490743
24	0x3f375534	0.71614385
25	0x3e3b8509	0.18312468
26	0xbefc3f8a	-0.49267226
27	0xbf07f541	-0.531086
28	0x3fbc0e92	1.4691947
29	0xbf35802e	-0.7089871
30	0x3e7e06bb	0.24807255
31	0x3ed89bbf	0.42306325
32	0x3f7c77de	0.986204
33	0x3f275536	0.65364397
34	0xbf877abd	-1.0584332
35	0x3e11b3cb	0.14228742
36	0x3efade74	0.48997843
37	0xbf2c9c3d	-0.674259
38	0xbdbdcd69	-0.092676945
39	0xbed9dd5e	-0.42551702
40	0x3f4373aa	0.76348364
41	0x3f881c93	1.063372
42	0x3f543198	0.82888174
43	0x3f92032b	1.1407217
44	0xbfb0f156	-1.382365
45	0xbe361d82	-0.17784694
46	0x3e9cb13b	0.30603966
47	0xbedb8dd5	-0.42881647
48	0x3fa5faf5	1.2967211
49	0x3f693f76	0.9111246
50	0x3f6d9c42	0.92816556
51	0x3e125343	0.14289574
52	0xbf5b4e5e	-0.85666454
53	0xbec77071	-0.38952973
54	0x3eafa45c	0.34305084
55	0x3fae0bd9	1.3597366
56	0xbe4b4b81	-0.19853021
57	0x3f4a68dd	0.7906626
58	0x3d6c946c	0.057758734
59	0xbe9ecdef	-0.3101649
60	0x3fae2c53	1.3607277
61	0x3d905e09	0.07049186
62	0x3e1096f6	0.14120087
63	0xbe8db6f8	-0.27678657

l2.bias f4 [8]
0	0x3d67006b	0.056396883
1	0x3f22f86a	0.636603
2	0x3db027f2	0.08601369
3	0x3f5160f7	0.8178858
4	0x3eb5b5a3	0.3549014
5	0x3e475089	0.19464315
6	0x3f0aa401	0.541565
7	0x3eca15d4	0.3946978

l3.weight f4 [9, 8]
0	0xbfabec43	-1.3431476
1	0xbf946db4	-1.1595979
2	0xbf48c58f	-0.7842645
3	0xbf87fb81	-1.0623628
4	0xbed0ec66	-0.40805358
5	0x3f63a66a	0.889258
6	0x3f13e36d	0.577689
7	0xbf944273	-1.1582779
8	0x3f42922b	0.76004285
9	0x3e0f7f0d	0.1401331
10	0x3e8a2a24	0.26985276
11	0xbfacbd20	-1.3495216
12	0xbf8c2708	-1.0949411
13	0xbf6e28d0	-0.93031025
14	0x3cb99dbf	0.022658227
15	0xbfc7ed48	-1.5619287
16	0x3e9f3e26	0.31102103
17	0x3f0383c9	0.51372963
18	0xc0068165	-2.1016476
19	0x3e39a227	0.18128262
20	0xbf8e7356	-1.1128948
21	0xbf544c73	-0.8292915
22	0x3f0755c0	0.5286522
23	0xbf8949e1	-1.0725671
24	0xbf95f1bf	-1.17144
25	0xbe5455fd	-0.20735927
26	0xbfaebe1e	-1.3651769
27	0x3f48229d	0.78177816
28	0x3f7f9fe3	0.9985334
29	0xbf3bffda	-0.73437274
30	0xbea15eeb	-0.3151773
31	0x3f471a8e	0.77774894
32	0xbf83db60	-1.0301323
33	0x3d94b6d0	0.07261431
34	0x3f127128	0.5720391
35	0xbf828d56	-1.0199382
36	0x3e880df3	0.26573142
37	0x3eef2d66	0.46714324
38	0xbea24110	-0.31690264
39	0xbfb31023	-1.39893
40	0xbfe52c51	-1.7904149
41	0x3eddda1a	0.4333046
42	0x3ec5cc25	0.38632312
43	0xbbf69fae	-0.0075263595
44	0xbecc7c3f	-0.39938542
45	0xbee60f36	-0.4493348
46	0xbf9e7a83	-1.2381138
47	0x3e139766	0.14413223
48	0xbf73bf7d	-0.9521406
49	0xbfd1d599	-1.639331
50	0x3ebff4d1	0.37491468
51	0xbdd411db	-0.10354968
52	0x3f26c0ee	0.6513814
53	0x3f03c323	0.5146963
54	0xbe47b5b4	-0.19502908
55	0x3e606bf9	0.21916188
56	0xbdd87696	-0.105694935
57	0xbe932aea	-0.28743678
58	0xbf272e7d	-0.6530531
59	0xbd4b88d3	-0.049691033
60	0x3ece1d45	0.40256706
61	0xbe351943	-0.17685418
62	0x3f35ed8f	0.7106561
63	0xbfde1539	-1.7350227
64	0x3e086790	0.13320756
65	0x3f1d9042	0.61548245
66	0xbfe2b79f	-1.7712287
67	0x3e8c9555	0.2745768
68	0xbf749d82	-0.9555284
69	0xbebba40c	-0.36648595
70	0xbfca9f81	-1.5829927
71	0x3f42f695	0.76157504

l3.bias f4 [9]
0	0xbe3b4089	-0.18286337
1	0xbe5d6b8d	-0.21623059
2	0xbd5668c3	-0.052346002
3	0x3e2e03c7	0.16993628
4	0xbebd74f7	-0.370033
5	0x3edbe641	0.42949107
6	0x3cf0dcd9	0.029402183
7	0xbe976e3c	-0.2957629
8	0x3e5fb93e	0.21848008
