data.pth (torch, 5471 bytes, 6 tensors)

l1.weight f4 [8, 57]
0	0xbe92d927	-0.286813
1	0x3ed86bb5	0.42269674
2	0x3db24b0d	0.08705721
3	0x3e4e9841	0.20175268
4	0xbe51d7f5	-0.20492537
5	0xbe5af8ae	-0.21383926
6	0x3f7b37ee	0.98132217
7	0x3e44bbb8	0.19212234
8	0x3e8ae66b	0.2712892
9	0x3e814b4b	0.25252756
10	0x3e8f48fc	0.2798537
11	0xbdf810bb	-0.12112566
12	0x3d2b8227	0.04187217
13	0xbe98131a	-0.29702073
14	0x3cbd0067	0.02307148
15	0xbd7858af	-0.06063145
16	0x3e54c00e	0.20776388
17	0xbe8af031	-0.27136377
18	0x3f6cecca	0.9254881
19	0xbf03e15b	-0.5151574
20	0xbe3a59c4	-0.18198305
21	0xbf12383d	-0.5711706
22	0x3ea94825	0.33062854
23	0xbefc8b14	-0.49324858
24	0xbeff4745	-0.49859062
25	0xbec131d7	-0.37733337
26	0x3db3194b	0.087450586
27	0xbe613173	-0.2199152
28	0xbe6783cd	-0.22608872
29	0xbeb1992d	-0.34687176
30	0x3d6fe49a	0.05856762
31	0xbf03f8b8	-0.5155139
32	0x3f1a1d94	0.6020138
33	0xbd0b06c6	-0.033942007
34	0x3e68adfa	0.22722617
35	0x3e6d353b	0.23164837
36	0xbe09dcd1	-0.13463141
37	0x3e830502	0.25589758
38	0xbb3a2ad4	-0.0028406875
39	0x3e9eac7b	0.30990967
40	0x3e4dabec	0.20085114
41	0x3ddbe7d8	0.1073758
42	0x3f266362	0.64995396
43	0xbe5ea6c5	-0.21743305
44	0xbbbe21d1	-0.005802371
45	0xbe4bf17f	-0.19916342
46	0xbe4bd072	-0.19903734
47	0x3e819f8a	0.2531703
48	0xbea3bebf	-0.31981465
49	0x3f3cec78	0.7379832
50	0x3ea6f2e5	0.3260719
51	0x3c7e83ab	0.015534322
52	0xbe9ae10f	-0.3024983
53	0x3dd8f75a	0.105940536
54	0xbe27a2d5	-0.16370709
55	0x3deda97d	0.11604593
56	0x3ec602cd	0.38674012
57	0xbd799547	-0.060933378
58	0x3f23d9fd	0.640045
59	0x3f5b9cc5	0.85786086
60	0xbf0e3443	-0.55548495
61	0x3ecd533f	0.40102574
62	0x3e0acc3d	0.13554473
63	0xbee2b364	-0.4427749
64	0xbe20fa2d	-0.15720434
65	0xbe88201c	-0.26586998
66	0xbf1ec69a	-0.6202179
67	0xbe95678c	-0.29180562
68	0x3eea007e	0.457035
69	0xbc10fb43	-0.008848968
70	0x3b93bbf4	0.0045084897
71	0xbe2a53e0	-0.16633558
72	0x3f09c685	0.5381854
73	0xbc93d384	-0.018045194
74	0x3ee2ebfa	0.4432066
75	0xbef0f7b9	-0.47063997
76	0xbf190918	-0.597795
77	0x3e33a3ee	0.17543003
78	0x3f15a474	0.5845406
79	0x3f2687f0	0.65051174
80	0x3ec05fb3	0.37573013
81	0x3f0c6c58	0.5485282
82	0x3eaf6d19	0.34262922
83	0xbe51625f	-0.20447682
84	0x3f057d5f	0.52144426
85	0xbce15766	-0.027507495
86	0x3f530d76	0.82442415
87	0x3d74290c	0.059609458
88	0x3f1127e8	0.5670152
89	0xbe3923c8	-0.18080056
90	0xbc34572a	-0.01100711
91	0x3efef2fc	0.49794757
92	0xbec245ca	-0.3794387
93	0x3f4a90ae	0.79127014
94	0xbda25165	-0.07925681
95	0xbd6ae463	-0.057346713
96	0xbee2f3e3	-0.44326696
97	0xbdc21e30	-0.09478414
98	0xbe3f0763	-0.18655162
99	0xbe99fbc5	-0.30074897
100	0x3e31f1aa	0.17377344
101	0xbd96dd9f	-0.073664896
102	0x3e488565	0.19582136
103	0xbe219dc7	-0.15782844
104	0xbee690bd	-0.45032302
105	0x3f17aa93	0.5924465
106	0x3f885039	1.0649482
107	0x3ef12384	0.4709741
108	0x3eb95cd1	0.36203626
109	0x3e06f2d5	0.1317857
110	0xbd5cdb36	-0.053919993
111	0x3e383d92	0.17992237
112	0xbe3a1fcb	-0.1817619
113	0x3e801a54	0.25020087
114	0xbe33ee51	-0.17571379
115	0x3dd8db6d	0.10588727
116	0x3f0c6dc9	0.5485502
117	0x3e3d9ac6	0.18516073
118	0x3dc3dd5f	0.095637076
119	0x3f0f8885	0.5606769
120	0xbf0d6d2b	-0.552447
121	0x3edbc9b0	0.42927313
122	0x3e8db2dd	0.27675524
123	0x3ee4dfce	0.44702
124	0x3dfc4874	0.12318507
125	0x3e94f5af	0.29093692
126	0xbd86a88b	-0.06575116
127	0x3f4b21f7	0.793487
128	0x3e2159f8	0.15756977
129	0x3f347fbb	0.705074
130	0xbe865d2d	-0.26242962
131	0x3e22a680	0.15883827
132	0xbf0d668d	-0.55234605
133	0xbf27ab79	-0.6549602
134	0x3f121aac	0.5707195
135	0x3db2350d	0.08701525
136	0x3dc037d2	0.09385647
137	0x3ebf061b	0.37309346
138	0x3e0c1317	0.13679157
139	0xbe93c909	-0.28864315
140	0x3e8ded3a	0.27720052
141	0x3d9653d8	0.07340211
142	0x3f09983c	0.53747916
143	0x3f02c507	0.5108189
144	0x3f0207fe	0.50793445
145	0x3ec4da6c	0.38447893
146	0xbedb6602	-0.42851263
147	0xbd6afea1	-0.05737174
148	0xbe4ba1b0	-0.19885898
149	0x3dd76c73	0.10518732
150	0x3f6a10d6	0.9143194
151	0xbdbe2734	-0.09284821
152	0x3ef98d74	0.48740733
153	0x3e93c9bf	0.28864858
154	0x3f19097b	0.5978009
155	0x3ee6aa5e	0.45051855
156	0xbf056568	-0.5210786
157	0x3eec8ed7	0.46202728
158	0xbdb71da8	-0.08941203
159	0x3e883484	0.26602566
160	0xbd11a6fa	-0.035559632
161	0x3ea82118	0.3283775
162	0x3f58376c	0.8445957
163	0xbdf5b722	-0.119978204
164	0xbc688717	-0.014192364
165	0x3ea27372	0.31728703
166	0x3f1119fa	0.5668026
167	0xbe8c4c8d	-0.27402154
168	0x3efd2238	0.4944017
169	0x3efc37ec	0.49261415
170	0x3f06592d	0.5247982
171	0x3ea9ce56	0.33165234
172	0xbe1a9769	-0.15096821
173	0xbeae39d7	-0.34028503
174	0x3e8cafea	0.27477962
175	0x3d718ecf	0.058974084
176	0x3e8e3088	0.277714
177	0x3ef20f64	0.47277367
178	0x3eeb6292	0.4597364
179	0x3eb6f283	0.35731897
180	0x3f0ada01	0.542389
181	0x3e938ac3	0.28816804
182	0x3dedeba8	0.116172135
183	0xbeba9428	-0.3644116
184	0x3e47736c	0.19477624
185	0xbe74b7fb	-0.23898308
186	0xbe936f4c	-0.2879585
187	0xbe2c4442	-0.16822913
188	0xbd1ca5a2	-0.038243897
189	0x3ecbf991	0.39838842
190	0x3f3edf1c	0.7455919
191	0x3e2c3471	0.1681688
192	0x3cb93158	0.022606537
193	0xbe5f2aea	-0.21793714
194	0xbe91768f	-0.28410766
195	0x3b09eb0a	0.0021044635
196	0xbe3ba1b0	-0.18323398
197	0x3ec5c8d2	0.38629776
198	0x3e1166b2	0.14199331
199	0x3e2d2f3c	0.1691255
200	0xbeb65425	-0.35611072
201	0x3e13bab1	0.14426686
202	0xbe985f70	-0.29760313
203	0x3eab47e5	0.3345329
204	0xbeab60bd	-0.33472243
205	0xbbefa4f4	-0.007313365
206	0x3e8859c9	0.26631
207	0xbec277bc	-0.37981975
208	0xbea44a11	-0.32087758
209	0x3e8654c7	0.26236555
210	0x3f0d5970	0.55214596
211	0x3ee84526	0.45365256
212	0x3f05eec7	0.5231747
213	0x3ec5d822	0.3864146
214	0xbcc3fa0a	-0.023922939
215	0xbe7634c5	-0.24043567
216	0x3ed94823	0.42437848
217	0x3f106bbc	0.5641439
218	0x3ea97897	0.33099815
219	0xbed88db8	-0.42295623
220	0xbf3630ee	-0.7116841
221	0xbe985871	-0.29754975
222	0x3e1f3445	0.15547283
223	0x3e4e69d1	0.20157553
224	0xbec986fc	-0.39360797
225	0xbb19320b	-0.0023375775
226	0x3f0a646e	0.54059494
227	0x3e08010e	0.13281652
228	0xbd442e9f	-0.047896024
229	0xbcea9022	-0.028633181
230	0xbe7b35fb	-0.2453231
231	0x3ef831a6	0.4847538
232	0xbe653e2f	-0.22387002
233	0x3dfd82a2	0.12378432
234	0xbe6aa95f	-0.22916172
235	0xbdefe935	-0.117144026
236	0x3ec70eb9	0.3887842
237	0x3f05a36a	0.52202475
238	0x3eb3440b	0.3501285
239	0xbe556df6	-0.20842728
240	0x3e9d407f	0.3071327
241	0x3f24b72b	0.6434199
242	0x3e5c6d08	0.21525967
243	0xbe046183	-0.12927823
244	0xbc738a2f	-0.0148644885
245	0xbca94506	-0.020662796
246	0xbe5cedec	-0.21575135
247	0x3dbb99b2	0.091601744
248	0x3e9d16f0	0.30681562
249	0xbe6a9f0f	-0.22912239
250	0xbdcd0a5f	-0.10011744
251	0xbe6ab997	-0.2292236
252	0xbe6ab1dd	-0.22919412
253	0xbecc8e29	-0.3995221
254	0xbde16daa	-0.11007245
255	0xbec9bee3	-0.39403448

l1.bias f4 [8]
0	0x3f36d6e6	0.7142166
1	0x3f52fa88	0.8241353
2	0x3f0d6c2e	0.55243194
3	0x3f2a927f	0.66629785
4	0x3e6a9dac	0.2291171
5	0x3ed81138	0.42200637
6	0x3f219412	0.6311656
7	0x3f716f2e	0.9431027

l2.weight f4 [8, 8]
0	0x3dc439a0	0.095813036
1	0x3faa2674	1.3292985
2	0x3f6a7fc4	0.91601205
3	0xbf24fcfa	-0.6444851
4	0x3eed8d17	0.46396706
5	0xbf355500	-0.70832825
6	0xbef2fa56	-0.47456616
7	0x3f288236	0.65823686
8	0x3d79947d	0.060932625
9	0xbf62015b	-0.8828332
10	0xbf027a59	-0.5096794
11	0x3f336321	0.70073134
12	0x3f223e09	0.6337591
13	0x3db16bf1	0.08663166
14	0x3f796bdd	0.9743021
15	0x3f247461	0.6424008
16	0x3fa5aee4	1.2943997
17	0x3f64dbb7	0.8939776
18	0xbf80b85b	-1.0056261
19	0xbefe758f	-0.49699065
20	0xbf31a490	-0.6939173
21	0x3f6b9542	0.92024624
22	0x3f70d51f	0.94075197
23	0x3d18f96b	0.03734724
24	0x3f9f1bfb	1.2430414
25	0x3e247ba4	0.1606279
26	0xbe95d6be	-0.29265398
27	0x3f52c1c5	0.8232692
28	0xbeee3370	-0.4652362
29	0xbe2aad02	-0.1666756
30	0x3f683001	0.9069825
31	0x3f93919d	1.1528813
32	0xbe0b363e	-0.1359491
33	0xbf25d2e3	-0.6477491
34	0x3f08ca2b	0.53433484
35	0x3f9d1ab5	1.2273775
36	0x3f8661c6	1.0498588
37	0xbe893ce3	-0.26804265
38	0x3f426efc	0.759506
39	0xbcb7297e	-0.022358652
40	0x3e601898	0.21884382
41	0x3f249ae1	0.64298826
42	0x3f6c0f7b	0.9221112
43	0xbeee914b	-0.46595225
44	0x3f359c57	0.7094168
45	0x3f31aa57	0.6940054
46	0xbdc81cd1	-0.09771121
47	0xbf846db4	-1.0345979
48	0xbf8a9fe6	-1.0830047
49	0x3ef6f893	0.48236522
50	0x3f0870c2	0.53297055
51	0x3f3a08a3	0.7266943
52	0xbbbdef67	-0.0057963612
53	0xbf3da29a	-0.74076235
54	0xbdf0b279	-0.11752791
55	0x3f8769ac	1.0579123
56	0x3f5d59d0	0.8646517
57	0xbf1f8128	-0.6230645
58	0x3ee26cf0	0.44223738
59	0x3f0c6edd	0.54856664
60	0x3f62b894	0.88562894
61	0x3f93e5a4	1.1554456
62	0xbe260eb1	-0.16216542
63	0xbef3302e	-0.47497696

l2.bias f4 [8]
0	0x3f52f625	0.82406837
1	0x3e4c8e48	0.19976151
2	0x3f3cd019	0.7375503
3	0x3f00bfad	0.50292474
4	0x3c79eda4	0.015254412
5	0x3ea2f59b	0.31828007
6	0x3f3def7c	0.7419355
7	0x3e66c323	0.22535376

l3.weight f4 [8, 8]
0	0xbf303bb1	-0.6884108
1	0xbf69f779	-0.9139324
2	0x3e6cdb0c	0.23130435
3	0xbf5d9265	-0.86551505
4	0xbf851d20	-1.0399513
5	0x3f09da6c	0.5384891
6	0xbf20501f	-0.62622255
7	0x3f3fd880	0.7493973
8	0x3f4d3d03	0.8017122
9	0xbf7a2510	-0.977128
10	0xbf2ec51f	-0.6826953
11	0xbf8392cd	-1.0279175
12	0xbf4df9a0	-0.8045902
13	0x3f4be2df	0.7964305
14	0x3e151525	0.14558847
15	0xbfbddcc0	-1.4832993
16	0xbf91f51d	-1.1402928
17	0x3dd0bc8a	0.10192211
18	0x3ef7ccbc	0.48398387
19	0x3eea151e	0.45719236
20	0xbe2d6b22	-0.16935399
21	0xbfca072f	-1.5783442
22	0xbf613422	-0.87970173
23	0x3e466b49	0.19376864
24	0x3f2422ca	0.64115584
25	0xbf84e599	-1.0382568
26	0xbeb56643	-0.35429582
27	0x3ed242e7	0.41066667
28	0xbf5f28cc	-0.87171626
29	0xbf96e238	-1.1787786
30	0x3f6cba2c	0.92471576
31	0xbf46b82b	-0.7762477
32	0xbf5e005b	-0.8671929
33	0x3f3aacea	0.72920096
34	0xbee2c660	-0.44291973
35	0x3e62f2ee	0.22162983
36	0x3ef9cfce	0.48791355
37	0xbf59ec6a	-0.85126364
38	0x3eab7253	0.3348566
39	0xbfb277f6	-1.3942859
40	0x3e9f603b	0.31128106
41	0xbfb3b826	-1.4040573
42	0xbf78420c	-0.9697578
43	0xbf811c72	-1.0086806
44	0x3f16cac4	0.58903146
45	0x3eda3e92	0.42625862
46	0xbe402afb	-0.18766396
47	0x3dbfeed2	0.09371723
48	0xbf48ed69	-0.7848726
49	0x3dcaf09d	0.099091746
50	0xbf8f60a7	-1.1201371
51	0x3e6589aa	0.22415796
52	0x3ebcc84b	0.3687156
53	0xbdb1d46c	-0.086830944
54	0xbeaf6f74	-0.3426472
55	0x3ef819a7	0.4845707
56	0x3e947dd9	0.29002264
57	0xbfab6514	-1.3390222
58	0x3f18d126	0.59694135
59	0x3ede7fa3	0.43456754
60	0xbf7f3ad3	-0.99699134
61	0x3e77b491	0.24189974
62	0xbf94c235	-1.1621767
63	0xbf393d6b	-0.7235934

l3.bias f4 [8]
0	0x3c77f6fa	0.015134567
1	0xbe9385de	-0.2881307
2	0x3e99e47e	0.30057138
3	0x3ed43ca5	0.41452518
4	0x3df5f132	0.12008895
5	0xbee08c2a	-0.43856937
6	0x3d9040df	0.07043623
7	0xbdec624b	-0.115421854
